optimized_model.pth (torch, 192233 bytes, 20 tensors)

network.0.weight f4 [256, 11]
-0.64893866 -0.42174527 0.30912533 0.06872642 -0.16927397 0.10459481 0.1577562 0.09734221
0.005339485 0.10585567 -0.15564287 -0.31220168 0.44191837 -0.30911395 -0.2013073 -0.07684711
-0.19383095 0.24806458 -0.065071076 -0.17796418 0.040375646 0.36835852 -0.11245133 -0.06461501
-0.12855451 0.16484211 0.29772112 -0.07432256 -0.6438843 -0.40457386 -0.14711535 0.024349961
0.03540342 0.0054051583 0.029819326 0.28852868 0.3458642 -0.1818354 -0.2787675 -0.40906006
0.4357395 0.16635025 -0.33534133 0.18436448 -0.057407066 0.28254557 -0.26994297 -0.05075619
-0.17678022 -0.27276096 0.24844024 0.1970321 0.25949338 -0.4323997 0.09110008 -0.39618626
-0.6002175 -0.12591854 0.007380345 0.21403047 -0.16048945 0.08517755 0.009874315 0.16142747
-0.06570228 0.43951413 0.22998273 -0.8013684 -0.044396825 -0.11616186 -0.22790657 0.038727958
0.05361483 0.1002757 0.073019534 0.2260933 0.066902734 0.3603401 -0.037640195 0.0041209664
0.10539367 -0.47803938 0.07961942 0.26385862 -0.058661487 -0.72551507 -0.32673368 0.13195653
0.14165384 -0.71583015 -0.16745286 0.011458622 0.09681322 0.12242104 0.18993846 0.20763874
0.39009008 0.37787604 -0.29397735 -0.43438703 0.26237315 -0.059118837 -0.1400656 0.22714365
0.05583717 -0.65187967 -0.2147951 -0.08553778 -0.39341936 -0.19530982 -0.13055459 -0.07401147
0.099165924 -0.14210422 0.071993336 0.028916756 -0.79333925 -0.4781222 -0.39555734 0.09013393
-0.056794338 -0.19244993 -0.41063607 -0.18428503 0.053893354 -0.23385935 0.3070504 -0.14612001
-0.05941453 0.089229345 0.42945284 0.56438637 0.086720705 -0.10879597 -0.20450215 -0.19109507
0.13661268 0.14512156 0.16856761 -0.39666104 -0.622486 -0.6743739 -0.2582311 0.15082929
0.48070648 -0.31398135 0.06451453 -0.09684976 0.13977519 -0.08224823 -0.0016966915 0.01774366
-0.011119956 -0.43119046 -0.035139527 0.62434244 -0.0978741 0.08342942 -0.1690488 0.23905873
0.38000718 0.13854387 -0.21567081 -0.2806675 -0.2991333 0.11582804 0.36795056 0.11847777
-0.16025877 -0.12569068 0.11270155 0.07740327 -0.8404417 0.23317252 0.07836095 0.47202635
-0.08009188 0.46124452 -0.52887374 -0.1398643 -0.034646824 -0.026950644 0.1826432 -0.5359903
-0.5155525 -0.044263046 -0.37610295 -0.13177972 -0.09929718 -0.4878782 0.1585924 -0.017666647
-0.05531603 -0.09510856 -0.8550619 -0.23475978 -0.36004114 -0.22263494 -0.2020895 -1.2016442
0.014705418 0.05964554 -0.024886506 -0.0091435695 -0.046271414 0.1361705 -0.016928496 -0.784743
-0.017318716 -0.08339889 -0.7238336 0.27244508 -0.19977763 0.0700345 0.10179855 -0.06310069
0.38295382 0.10517669 0.18919195 -0.16082571 0.3742971 0.12900701 0.16761723 -0.038322948
0.05033798 0.00064661226 -0.124606125 -0.4267755 -0.14233427 0.32045308 -0.43906507 0.2601131
-0.7635928 0.14416356 -0.028717745 -0.12590829 -0.26214448 0.21818015 0.38170028 0.3990018
0.093379065 -0.17642741 -0.105999574 -0.95872575 -0.120711185 0.030386683 -0.089259714 -0.087164834
0.06725842 -0.43206763 -0.12893225 -0.3181615 0.050384816 0.10724981 1.1002297 -0.20000096
00000000: d820 26bf ffee d7be ad45 9e3e 70c0 8c3d
00000010: 2856 2dbe ce35 d63d d78a 213e 5a5b c73d
00000020: d9f6 ae3b dcca d83d d860 1fbe e6d8 9fbe
00000030: 2043 e23e 2f44 9ebe 8023 4ebe 0562 9dbd
00000040: 9f7b 46be a404 7e3e fc43 85bd 3e3c 36be
00000050: ef60 253d 7d99 bc3e e24c e6bd e054 84bd
00000060: cba3 03be 5fcc 283e e76e 983e 6d36 98bd
00000070: 9ad5 24bf 4e24 cfbe 68a5 16be 9279 c73c
00000080: 2d03 113d c11d b13b a947 f43c 08ba 933e
00000090: 1d15 b13e 0f33 3abe 9dba 8ebe 5270 d1be
000000a0: 3f19 df3e b857 2a3e dcb1 abbe 0bca 3c3e
000000b0: ac23 6bbd d0a9 903e f735 8abe b9e5 4fbd
000000c0: e005 35be 53a7 8bbe 1e67 7e3e c8c2 493e
000000d0: 51dc 843e 7e63 ddbe ae92 ba3d edd8 cabe
000000e0: dba7 19bf caf0 00be d2d6 f13b ce2a 5b3e
000000f0: 5957 24be 9171 ae3d e1c7 213c 3e4d 253e
00000100: eb8e 86bd ff07 e13e 9880 6b3e 7b26 4dbf
00000110: 72d9 35bd 45e6 edbd 5760 69be 35a1 1e3d
00000120: 399b 5b3d 595d cd3d 448b 953d 0185 673e
00000130: 4d04 893d 7f7e b83e 9b2c 1abd 2c09 873b
00000140: a3d8 d73d 94c1 f4be 820f a33d 7a18 873e
00000150: 0747 70bd 5bbb 39bf a349 a7be 9d1f 073e
00000160: b40d 113e a540 37bf c378 2bbe f2bc 3b3c
00000170: 0246 c63d e2b7 fa3d 3a7f 423e 409f 543e
00000180: e3b9 c73e f878 c13e 3384 96be fa67 debe
00000190: c655 863e 9826 72bd 5b6d 0fbe 5898 683e
000001a0: 84b5 643d 96e1 26bf 3ff3 5bbe 6e2e afbd
000001b0: 436e c9be 4cff 47be 1ab0 05be 5393 97bd
000001c0: 8117 cb3d c583 11be 3e71 933d d5e2 ec3c
000001d0: 4818 4bbf 6fcc f4be 7e86 cabe 2398 b83d
000001e0: 2ea1 68bd 9811 45be e43e d2be 37b5 3cbe
000001f0: 47bf 5c3d d378 6fbe b635 9d3e 7ca0 15be
00000200: a65c 73bd e0bd b63d 3ee1 db3e a07b 103f
00000210: a09a b13d 6cd0 debd 0369 51be 6dae 43be
00000220: 32e4 0b3e bf9a 143e fd9c 2c3e 2817 cbbe
00000230: 3e5b 1fbf c5a3 2cbf de36 84be fe72 1a3e
00000240: 291f f63e 2ac2 a0be 3220 843d 2b59 c6bd
00000250: 3a21 0f3e c371 a8bd 8563 deba 275b 913c
00000260: 7a30 36bc ffc4 dcbe 77ee 0fbd e8d4 1f3f
00000270: 3772 c8bd 0bdd aa3d 211b 2dbe d0cb 743e
00000280: 4d90 c23e 72de 0d3e cfd8 5cbe a7b3 8fbe
00000290: 0028 99be 4037 ed3d 0464 bc3e 79a4 f23d
000002a0: e01a 24be 0fb5 00be 12d0 e63d 9b85 9e3d
000002b0: 3027 57bf c7c4 6e3e b57b a03d 70ad f13e
000002c0: 3607 a4bd 3e28 ec3e 4564 07bf 9638 0fbe
000002d0: d4e9 0dbd 99c7 dcbc d206 3b3e a936 09bf
000002e0: 40fb 03bf 2b4d 35bd 9190 c0be 43f1 06be
000002f0: 525c cbbd 2ccb f9be 0c66 223e a5b9 90bc
00000300: 1093 62bd 47c8 c2bd 56e5 5abf de64 70be
00000310: 5057 b8be 6afa 63be 8df0 4ebe 7acf 99bf
00000320: feee 703c e24e 743d c9de cbbc e9ce 15bc
00000330: 1887 3dbd 4870 0b3e a1ad 8abc ebe4 48bf
00000340: fbdf 8dbc 0acd aabd 294d 39bf ec7d 8b3e
00000350: 8292 4cbe 3f6e 8f3d c27b d03d ef3a 81bd
00000360: 8612 c43e e066 d73d 89bb 413e 7faf 24be
00000370: dfa3 bf3e 6a1a 043e daa3 2b3e 86f8 1cbd
00000380: 332f 4e3d 6a81 293a 7f31 ffbd 5182 dabe
00000390: 13c0 11be 6d12 a43e 23cd e0be 8b2d 853e
000003a0: d17a 43bf 9d9f 133e 7a41 ebbc 1aee 00be
000003b0: cd37 86be 9e6a 5f3e 386e c33e f749 cc3e
000003c0: 863d bf3d 63a9 34be 4e16 d9bd 0d6f 75bf
000003d0: 6d37 f7bd 7eed f83c cccd b6bd 7a83 b2bd
000003e0: c8be 893d f837 ddbe d106 04be 10e6 a2be
000003f0: 4f60 4e3d caa5 db3d 54d4 8c3f 0dcd 4cbe

network.0.bias f4 [256]
0.2789185 0.13529792 -0.061456323 0.06479733 -0.17362587 -0.054601647 -0.017121222 0.04180098
-0.117301226 -0.25898135 -0.08875706 -0.038754165 -0.25862515 -0.2586474 0.1430123 -0.15956533
0.09623228 -0.16331318 -0.17228141 -0.22237393 -0.27278113 0.23482306 0.07287832 -0.23563494
-0.03701938 0.0571184 0.21073881 0.09978535 0.17512737 -0.023150388 0.17160986 -0.28338104
0.2080596 0.2491374 -0.18175162 0.27520597 -0.060765926 -0.152225 -0.29354668 0.26889393
-0.16193683 -0.195477 0.17778842 -0.052394405 0.047931567 -0.08807825 0.121325016 -0.16158806
0.034587298 0.15228891 0.18250145 -0.29648662 -0.27790487 0.17227544 -0.29442894 -0.035599463
0.120758034 0.19753954 0.16900413 0.00886478 0.19779004 0.13438605 -0.12094262 0.012578746
-0.14311622 0.19606064 -0.035308216 0.03543946 -0.18860653 0.17020479 0.20563781 0.0432016
0.050630733 0.22433189 0.068897866 0.26025012 -0.0858969 -0.06235368 0.2703811 -0.20968767
-0.096578404 0.24380246 0.027828429 0.19536178 -0.28330937 0.10368713 -0.24153304 -0.1274004
0.22750193 -0.11979152 0.26394373 -0.10978626 0.01897319 0.27133173 -0.29525 -0.27691773
-0.2997673 0.18578492 -0.06514407 -0.29128435 0.017094709 -0.24669155 -0.20020188 0.10715485
-0.2830713 -0.1667348 -0.28661186 0.08785941 0.10217235 0.25105524 -0.07574784 0.1767847
0.21338254 0.29184574 -0.008975539 0.007814613 0.14075094 -0.20539282 -0.11249959 -0.20953815
0.21318068 -0.20738387 0.05433908 0.24965723 0.13457641 0.12703109 -0.16419521 -0.05653666
0.05507135 -0.16164525 0.22608252 -0.058791503 0.27214602 -0.15963185 0.18756558 -0.27102977
0.024715384 0.24196197 0.25420886 -0.01667421 -0.25053728 0.15931419 -0.09323578 -0.22623397
-0.24146622 0.13902822 -0.260687 -0.20887159 -0.05221739 -0.036291897 -0.012488249 -0.22920889
0.1469896 0.2556511 -0.004050236 -0.0675192 -0.0349825 -0.08597999 0.20890903 0.1827024
0.15261766 -0.100112334 0.09262027 0.16710843 -0.28378645 0.16469689 0.2810478 -0.16145858
0.056128893 0.22748007 0.10199687 0.15412723 0.3014239 0.10045564 0.28631878 0.0056235134
-0.13095349 0.026363082 0.25413197 -0.06338209 0.09386996 -0.29704913 -0.103301525 -0.11295487
0.053355686 0.013388144 -0.12227874 -0.023017813 0.2773295 0.2515625 -0.20696367 -0.009944575
-0.22844972 -0.09087871 0.15968388 0.24013376 -0.04848256 -0.15416242 -0.108665526 -0.17675379
0.23950166 -0.2197957 -0.043301303 -0.2617708 -0.15264264 0.040444218 0.120137386 -0.09969208
0.041591436 -0.1563525 0.0416782 -0.25465894 0.11808441 -0.12251445 -0.14252894 -0.1915028
0.2496076 0.14577709 0.056374058 -0.14294146 -0.29461306 0.17090079 -0.084094726 0.2572623
0.2873992 -0.13060617 -0.2910838 -0.15684433 -0.17888889 -0.23928358 0.08596595 0.03948529
0.057620928 -0.064662896 -0.2264717 0.04933721 -0.085061215 0.03743283 -0.053138807 0.22730851
0.10759596 -0.24057499 -0.30224285 0.15156691 -0.16004921 0.08722175 -0.028603204 -0.036695365
0.04720576 0.022727761 -0.12282744 -0.008621247 -0.027729219 0.15787594 -0.04432136 -0.044489536
00000000: 68ce 8e3e 8a8b 0a3e a0b9 7bbd 76b4 843d
00000010: fbca 31be faa5 5fbd ce41 8cbc 8137 2b3d
00000020: a03b f0bd 3499 84be 43c6 b5bd b0bc 1ebd
00000030: 846a 84be 6f6d 84be d171 123e 1865 23be
00000040: 6e15 c53d 923b 27be 8a6a 30be feb5 63be
00000050: f8a9 8bbe 7575 703e 3b41 953d 494a 71be
00000060: a2a1 17bd fcf4 693d eacb 573e 435c cc3d
00000070: 9754 333e e2a5 bdbc 7fba 2f3e 5217 91be
00000080: 930d 553e e01d 7f3e 191d 3abe cce7 8c3e
00000090: b1e5 78bd dfe0 1bbe c04b 96be 77ac 893e
000000a0: c5d2 25be 1f2b 48be 2b0e 363e 849b 56bd
000000b0: e453 443d 5f62 b4bd 4079 f83d 5777 25be
000000c0: 69ab 0d3d a0f1 1b3e a9e1 3a3e 18cd 97be
000000d0: 8c49 8ebe f968 303e 64bf 96be bed0 11bd
000000e0: fd4f f73d ce47 4a3e 6b0f 2d3e 953d 113c
000000f0: 7989 4a3e 7f9c 093e c4b0 f7bd 1617 4e3c
00000100: 0f8d 12be 1fc4 483e 599f 10bd f828 113d
00000110: 1222 41be 2a4a 2e3e b892 523e 29f4 303d
00000120: 2c62 4f3d 42b7 653e 531a 8d3d 813f 853e
00000130: b7ea afbd 9366 7fbd 646f 8a3e 5db8 56be
00000140: e6ca c5bd 5aa7 793e 72f8 e33c eb0c 483e
00000150: ed0d 91be eb59 d43d 7054 77be 4075 02be
00000160: 44f6 683e 4255 f5bd a223 873e 9ed7 e0bd
00000170: aa6d 9b3c feeb 8a3e 022b 97be 29c8 8dbe
00000180: 197b 99be 673e 3e3e 416a 85bd 3923 95be
00000190: 340a 8c3c b69c 7cbe b901 4dbe 0174 db3d
000001a0: b9ee 90be 87bc 2abe cabe 92be a2ef b33d
000001b0: bd3f d13d 508a 803e af21 9bbd 0c07 353e
000001c0: f480 5a3e ce6c 953e 240e 13bc dd08 003c
000001d0: 0421 103e 7f52 52be 2f66 e6bd 2b91 56be
000001e0: 094c 5a3e 705c 54be a892 5e3d 25a6 7f3e
000001f0: 66ce 093e 7014 023e ca22 28be fc92 67bd
00000200: 7f92 613d 5586 25be 2d82 673e 5ccf 70bd
00000210: b956 8b3e 8876 23be 3111 403e 6ac4 8abe
00000220: eb77 ca3c e1c4 773e aa27 823e 5a98 88bc
00000230: 6c46 80be 4223 233e 67f2 bebd e1a9 67be
00000240: ec42 77be 6a5d 0e3e c478 85be 6fe2 55be
00000250: e7e1 55bd d0a6 14bd 839b 4cbc bcb5 6abe
00000260: 7184 163e b3e4 823e d8b7 84bb 8247 8abd
00000270: cf49 0fbd 4716 b0bd 40ec 553e 5716 3b3e
00000280: ce47 1c3e b207 cdbd b2af bd3d 791e 2b3e
00000290: 754c 91be 4da6 283e 7fe5 8f3e 6655 25be
000002a0: 69e7 653d 89f0 683e bce3 d03d 87d3 1d3e
000002b0: 3c54 9a3e b0bb cd3d 6098 923e 7345 b83b
000002c0: ac18 06be 64f7 d73c 961d 823e 78ce 81bd
000002d0: e53e c03d d316 98be c08f d3bd e254 e7bd
000002e0: 7e8b 5a3d f259 5b3c 476d fabd da8f bcbc
000002f0: 22fe 8d3e cdcc 803e 49ee 53be 92ee 22bc
00000300: b9ee 69be 9e1e babd 2c84 233e a0e5 753e
00000310: a695 46bd c1dc 1dbe 088c debd f2fe 34be
00000320: ec3f 753e 2012 61be b55c 31bd d306 86be
00000330: 5a4e 1cbe d6a8 253d 970a f63d 5c2b ccbd
00000340: c85b 2a3d df1a 20be c3b6 2a3d a862 82be
00000350: 3dd6 f13d dbe8 fabd 1bf3 11be 4f19 44be
00000360: 2299 7f3e 9746 153e 7ce8 663d 3f5f 12be
00000370: 86d7 96be 9e00 2f3e db39 acbd e2b7 833e
00000380: fd25 933e a0bd 05be f008 95be cd9b 20be
00000390: a62e 37be c106 75be ea0e b03d 54bb 213d
000003a0: ec03 6c3d fb6d 84bd 33e8 67be d015 4a3d
000003b0: 9334 aebd 2b53 193d 14a8 59bd 90c3 683e
000003c0: 455b dc3d 4a59 76be 93bf 9abe 5b34 1b3e
000003d0: f1e3 23be 51a1 b23d 4451 eabc e14d 16bd
000003e0: d45a 413d 922f ba3c f48c fbbd 2140 0dbc
000003f0: 6328 e3bc 3baa 213e 508a 35bd a93a 36bd

network.1.weight f4 [256]
0.8545943 0.74623966 0.83645976 0.8637184 0.8318187 1.0111861 1.0085611 0.819917
0.98719525 1.0403409 1.0217035 1.1728473 1.2738435 0.9740511 0.6701732 0.91345644
0.9663939 1.105139 1.6231565 0.75653696 0.7624835 0.9294766 1.6338348 1.1063229
0.91496587 1.2848215 1.0233536 0.66386074 1.0036573 1.0951966 1.3200977 1.0687913
1.2015827 0.892323 1.0773225 1.2646983 1.0888418 0.93661666 1.1348624 1.0243567
0.94515 0.742008 1.0335642 0.9038845 1.2416769 0.92178684 0.986529 1.1363132
0.88949114 0.997159 0.82800144 0.7854611 0.939991 1.471728 1.08233 1.1858348
0.6155322 0.9580343 1.0407723 0.42970344 1.3843995 1.2394375 0.9541159 0.7209272
0.6993976 1.0688202 0.8577552 0.7342391 0.8908506 1.1520106 1.0497223 0.89876264
0.7795437 1.5081981 0.76550555 0.79503727 0.96407723 0.72301 0.45382792 1.0942124
1.2969035 0.981509 1.1133101 0.97954863 0.8358464 0.85223144 1.0910743 0.9184786
0.988845 0.9729063 0.6805217 0.6631919 0.9476492 1.0656867 0.71143734 0.7892413
0.74737024 1.0170113 1.220485 1.1715978 0.7802299 1.4874684 0.90824205 0.67085624
1.0125597 0.8167856 1.0631902 1.0416374 0.8812937 0.83532953 0.8971785 1.0230454
0.9746163 0.97662187 0.8623148 0.83757454 1.351843 0.8885182 0.84163326 0.7248133
1.2760493 0.99039656 1.1556659 0.8979649 0.8236258 0.8296511 0.8466948 1.2638024
0.935583 1.1942676 0.78965604 0.9550552 1.0498937 0.81876695 0.9696769 0.9002691
1.0203749 1.0539259 1.0632378 0.77517116 0.8823701 0.7645448 0.97224516 0.84606075
1.1602272 1.122568 0.63725424 0.94165576 0.7511013 0.95975935 1.188722 0.89361596
0.9865534 0.9616252 1.0385833 1.2946346 1.0510788 1.3617765 0.83913267 0.9399046
0.9417634 0.81553483 1.019771 0.9197163 1.3065032 0.9331581 0.7247215 1.0450022
1.1667165 0.9722308 1.0531278 0.8896034 1.0218672 0.93644744 0.69106615 1.3297459
0.6910399 1.2485666 0.7582616 0.75745595 0.68758684 0.97058755 1.1664457 0.8861232
0.9642544 1.0341932 0.9582843 1.0762651 1.0402954 1.0477229 1.0789195 1.0300019
0.8241033 1.3511143 0.992517 1.2246271 1.381532 1.1189045 1.2407937 0.6709337
0.9452061 0.9289125 0.96442604 1.1283737 0.9568819 1.3351892 1.0632862 1.0147318
0.8188589 1.0760269 1.1417907 1.2809156 1.0244201 0.8119295 0.7751964 1.179805
0.8138309 0.8495397 1.0740013 1.1854749 0.8633667 0.91148823 1.1049575 1.0292155
1.1661904 0.76336914 0.73874766 1.2698611 1.1773094 1.1630259 0.8339885 0.94550234
1.2213738 0.66092485 1.0804492 0.75695163 1.1519843 0.8223177 1.0641304 0.9900648
0.7922541 0.70708054 0.87620234 0.7916926 0.96475947 1.1342112 1.2622837 1.132697
1.5803798 1.1576804 1.0965849 1.0859964 1.0572127 0.84318 1.1148413 1.0617968
00000000: b1c6 5a3f 9009 3f3f 3a22 563f a61c 5d3f
00000010: 12f2 543f 8c6e 813f 8818 813f 15e6 513f
00000020: d4b8 7c3f e429 853f 2ec7 823f dc1f 963f
00000030: 4e0d a33f 6a5b 793f 7990 2b3f 48d8 693f
00000040: 9765 773f 3275 8d3f 98c3 cf3f 68ac 413f
00000050: 1e32 433f 2ef2 6d3f 8021 d13f fd9b 8d3f
00000060: 343b 6a3f 0875 a43f 40fd 823f c7f2 293f
00000070: d877 803f 672f 8c3f f6f8 a83f 27ce 883f
00000080: 76cd 993f 486f 643f b4e5 893f a2e1 a13f
00000090: 2b5f 8b3f 1cc6 6f3f 2c43 913f 1f1e 833f
000000a0: 5af5 713f 3cf4 3d3f d54b 843f f964 673f
000000b0: 45ef 9e3f 39fa 6b3f 2a8d 7c3f b672 913f
000000c0: b1b5 633f d045 7f3f e7f7 533f fb13 493f
000000d0: 40a3 703f 9561 bc3f ca89 8a3f 6fc9 973f
000000e0: 8593 1d3f bc41 753f 0738 853f 1702 dc3e
000000f0: 0134 b13f e3a5 9e3f f140 743f af8e 383f
00000100: b90b 333f 1acf 883f d895 5b3f 18f7 3b3f
00000110: c90e 643f 1575 933f 4d5d 863f 4f15 663f
00000120: 2d90 473f a30c c13f 2cf8 433f 9087 4b3f
00000130: c4cd 763f 2f17 393f 225c e83e 270f 8c3f
00000140: ef00 a63f 2c44 7b3f f280 8e3f b3c3 7a3f
00000150: 08fa 553f d72b 5a3f 53a8 8b3f 6a21 6b3f
00000160: f224 7d3f 6310 793f ac36 2e3f f2c6 293f
00000170: 2399 723f 6c68 883f c220 363f b80b 4a3f
00000180: a853 3f3f 6d2d 823f da38 9c3f ebf6 953f
00000190: 26bd 473f 5d65 be3f 8d82 683f 3cbd 2b3f
000001a0: 8e9b 813f dc18 513f 9e16 883f 6054 853f
000001b0: 779c 613f 28d8 553f 7dad 653f 27f3 823f
000001c0: 7480 793f e403 7a3f aac0 5c3f 496b 563f
000001d0: 3109 ad3f ee75 633f 4775 573f 5d8d 393f
000001e0: 9555 a33f a18a 7d3f dcec 933f 07e1 653f
000001f0: 24d9 523f 0464 543f fec0 583f 47c4 a13f
00000200: 5e82 6f3f c3dd 983f e626 4a3f 7f7e 743f
00000210: eb62 863f b69a 513f bf3c 783f 0978 663f
00000220: a59b 823f 0be7 863f 2d18 883f 9e71 463f
00000230: 02e3 613f 35b9 433f 0fe5 783f 7097 583f
00000240: 5382 943f 4fb0 8f3f 1823 233f 5a10 713f
00000250: 2d48 403f cab2 753f 0b28 983f 04c4 643f
00000260: c38e 7c3f 122d 763f 4cf0 843f 96b6 a53f
00000270: c089 863f b14e ae3f 66d1 563f 969d 703f
00000280: 6817 713f e4c6 503f db87 823f 8772 6b3f
00000290: 7f3b a73f 73e3 6e3f 5987 393f a2c2 853f
000002a0: f756 953f 1ee4 783f e4cc 863f 0cbd 633f
000002b0: 8bcc 823f 05bb 6f3f b6e9 303f 1d35 aa3f
000002c0: fee7 303f 08d1 9f3f 6f1d 423f a2e8 413f
000002d0: b105 303f 6d78 783f 184e 953f f8d8 623f
000002e0: 60d9 763f 7160 843f 1f52 753f 0ec3 893f
000002f0: 6628 853f c91b 863f 091a 8a3f 1ad7 833f
00000300: 6ff8 523f 50f1 ac3f 9815 7e3f 95c0 9c3f
00000310: 0ad6 b03f 4338 8f3f 54d2 9e3f 50c2 2b3f
00000320: 07f9 713f 36cd 6d3f a0e4 763f 8d6e 903f
00000330: 36f6 743f 7be7 aa3f c319 883f bbe2 813f
00000340: bda0 513f 40bb 893f 3326 923f 0bf5 a33f
00000350: 3320 833f 9dda 4f3f 4573 463f da03 973f
00000360: 3957 503f 6f7b 593f e078 893f a4bd 973f
00000370: 9a05 5d3f 4b57 693f 3f6f 8d3f 55bd 833f
00000380: ba45 953f 296c 433f 911e 3d3f cf8a a23f
00000390: 13b2 963f 08de 943f 4580 553f 710c 723f
000003a0: fa55 9c3f 5f32 293f 294c 8a3f 95c7 413f
000003b0: 3974 933f 6a83 523f 6d35 883f e374 7d3f
000003c0: 2ad1 4a3f 3b03 353f cc4e 603f 5eac 4a3f
000003d0: 7afa 763f d52d 913f 8392 a13f 37fc 903f
000003e0: e349 ca3f df2e 943f e55c 8c3f ee01 8b3f
000003f0: bf52 873f a5da 573f 1fb3 8e3f f5e8 873f

network.1.bias f4 [256]
-0.35137308 -0.27191988 -0.10586906 -0.392364 -0.22943793 0.010822263 0.043360323 -0.31259328
0.08424367 -0.44818625 -0.3110707 -0.05955031 -0.18313003 -0.25703308 0.16245472 -0.16944186
-0.060007896 0.12786447 -0.052528102 -0.19968142 -0.33526266 0.12308244 -0.07667012 -0.4600898
0.036701538 0.19568606 -0.17527115 -0.1382063 -0.6033442 -0.36470136 0.014800162 -0.20035544
-0.23985341 -0.17273869 -0.20471546 0.019535273 -0.109915264 -0.6621396 -0.33248132 -0.20651211
-0.5112605 -0.2613967 -0.14633748 0.0032347147 0.013335097 -0.218841 0.2571537 -0.2850364
-0.42854005 -0.15447022 -0.06555434 -0.12559032 -0.23431358 0.23106514 -0.51823455 0.073011026
-0.13193445 -0.08807476 -0.3008683 -0.075896114 -0.11312388 -0.2068163 -0.3402914 -0.40808302
-0.035300076 -0.19675976 -0.44740573 -0.42057964 -0.049992155 0.18795805 -0.1261199 -0.32626212
-0.30121624 -0.34911898 -0.35784256 0.011723069 -0.108098924 -0.2980531 -0.46056196 0.11429932
-0.19153999 -0.6185703 0.20749429 0.08244682 -0.2790831 -0.3023014 -0.13419066 -0.4083402
-0.1779336 0.14305633 -0.3668782 -0.18962142 -0.24563345 -0.17953847 -0.31942356 -0.25594112
-0.3728312 -0.26644814 -0.15198112 0.043869995 -0.43233937 0.34927687 -0.31360066 -0.11783935
-0.10172617 -0.40697342 -0.28461036 -0.25349694 -0.32536158 -0.086292274 -0.3281975 0.027804518
0.41869763 -0.17532961 -0.3938441 -0.39034846 0.23282777 -0.28692994 -0.3284524 -0.35610545
-0.26416808 -0.030927189 -0.14348042 -0.043663025 0.13306127 -0.18967797 -0.02931283 0.5470757
0.039199777 0.06288898 -0.111239694 -0.45756343 -0.25600967 0.16745752 -0.3858928 -0.09995664
0.1133068 -0.2712528 -0.16812345 -0.1615258 -0.48649418 -0.25102997 0.09371538 -0.049543966
-0.13684468 -0.020420292 -0.3471695 -0.32900387 -0.48846367 -0.3628518 -0.29368928 0.14815852
-0.7374658 0.14501218 0.057000656 -0.69050246 -0.18969867 0.06093819 -0.5596625 -0.25687957
0.07335571 -0.35661402 -0.09538243 -0.39415064 -0.6573036 -0.19891974 -0.16519332 -0.46133885
-0.6370949 -0.54208344 -0.26237127 -0.26107863 -0.24594983 -0.52007484 -0.19291687 -0.23489217
-0.4275497 -0.1255679 -0.30217308 -0.35168123 0.25929123 0.015415558 0.39170438 0.20367151
0.03567782 -0.10126201 -0.29245803 -0.44490212 -0.35095647 -0.31834674 -0.021428967 -0.23129752
-0.22144915 0.08074525 0.26627675 -0.6896835 0.09802279 -0.021112267 -0.1195462 -0.3229739
-0.56086624 -0.20525979 -0.40030873 0.0084515605 0.08477833 0.20085537 -0.14887878 -0.08143497
-0.19136526 -0.26563257 0.007190744 -0.05305455 -0.18706423 -0.07519948 -0.34185934 0.04819794
0.008051008 -0.32888713 -0.15085045 -0.1399019 -0.025987154 -0.14197718 -0.6649991 0.46788055
-0.03319555 -0.13491093 -0.4383581 -0.11210963 -0.09010707 0.064466715 -0.034652747 -0.35873657
-0.23912585 -0.016143441 -0.2065579 -0.4948179 0.01475619 -0.14979135 -0.25628197 0.12817474
-0.345913 -0.39500389 -0.19538316 -0.28632095 -0.12433953 -0.061599616 -0.22703966 -0.07640598
0.07961829 1.2818773e-05 -0.25804713 -0.1280093 0.16546342 -0.018358616 -0.07216038 -0.1977566
00000000: 2ce7 b3be 1539 8bbe e1d1 d8bd efe3 c8be
00000010: c7f1 6abe dc4f 313c 989a 313d 3a0c a0be
00000020: f287 ac3d ab78 e5be a944 9fbe 07eb 73bd
00000030: 7086 3bbe d799 83be 885a 263e 2b82 2dbe
00000040: d7ca 75bd e7ee 023e b527 57bd 4979 4cbe
00000050: 8ca7 abbe a512 fc3d 3905 9dbd e490 ebbe
00000060: 5a54 163d ed61 483e 487a 33be f485 0dbe
00000070: c474 1abf 23ba babe 617c 723c fa29 4dbe
00000080: 229c 75be 69e2 30be eea0 51be 7008 a03c
00000090: 411b e1bd fb81 29bf fe3a aabe e977 53be
000000a0: f8e1 02bf cad5 85be 7ed9 15be 82fd 533b
000000b0: 737b 5a3c db17 60be a6a9 833e 4bf0 91be
000000c0: 9a69 dbbe 712d 1ebe 5b41 86bd c09a 00be
000000d0: e6ef 6fbe 579c 6c3e 05ab 04bf ce86 953d
000000e0: d319 07be 8a60 b4bd 690b 9abe 6c6f 9bbd
000000f0: 7ead e7bd a7c7 53be ad3a aebe 42f0 d0be
00000100: d096 10bd 647b 49be 5d12 e5be 3756 d7be
00000110: 93c4 4cbd 1378 403e 9325 01be d40b a7be
00000120: 0439 9abe b9bf b2be 2437 b7be 1d12 403c
00000130: f862 ddbd 6a9a 98be c7ce ebbe c315 ea3d
00000140: 0f23 44be a05a 1ebf 6279 543e e1d9 a83d
00000150: fbe3 8ebe 40c7 9abe 4769 09be f711 d1be
00000160: 3a34 36be 5c7d 123e 76d7 bbbe 1e2c 42be
00000170: 5687 7bbe efd8 37be 7c8b a3be b70a 83be
00000180: bbe3 bebe e46b 88be f0a0 1bbe 06b1 333d
00000190: 965b ddbe 6bd4 b23e 4490 a0be c255 f1bd
000001a0: cf55 d0bd d25e d0be 73b8 91be 5aca 81be
000001b0: cb95 a6be 01ba b0bd 8109 a8be 4dc6 e33c
000001c0: 895f d63e 9b89 33be efa5 c9be c1db c7be
000001d0: 676a 6e3e 7be8 92be ea2a a8be 7453 b6be
000001e0: 0a41 87be 045b fdbc 88ec 12be 00d8 32bd
000001f0: 3741 083e f13a 42be 7621 f0bc 270d 0c3f
00000200: f28f 203d f0cb 803d a3d1 e3bd c145 eabe
00000210: b313 83be fc79 2b3e be93 c5be 11b6 ccbd
00000220: 650d e83d a6e1 8abe 8e28 2cbe 0567 25be
00000230: c415 f9be 0087 80be d9ed bf3d 9dee 4abd
00000240: 0321 0cbe 7548 a7bc 33c0 b1be 3273 a8be
00000250: e917 fabe b6c7 b9be 715e 96be deb6 173e
00000260: 8fca 3cbf 137e 143e 8579 693d c5c4 30bf
00000270: 5e40 42be 539a 793d 0b46 0fbf b885 83be
00000280: 853b 963d 1d96 b6be dd57 c3bd 1dce c9be
00000290: 0c45 28bf 9eb1 4bbe 7028 29be 9b34 ecbe
000002a0: a718 23bf fbc5 0abf 8755 86be 19ac 85be
000002b0: 46da 7bbe a023 05bf 008c 45be 9387 70be
000002c0: cbe7 dabe df94 00be 6eb6 9abe 900f b4be
000002d0: d2c1 843e 8991 7c3c 7a8d c83e 448f 503e
000002e0: e822 123d 7562 cfbd 0fbd 95be 36ca e3be
000002f0: 91b0 b3be 58fe a2be cd8b afbc 42d9 6cbe
00000300: 91c3 62be c45d a53d 6d55 883e 198f 30bf
00000310: 2cc0 c83d a2f3 acbc a3d4 f4bd d65c a5be
00000320: ee94 0fbf 9f2f 52be 44f5 ccbe 6a78 0a3c
00000330: 43a0 ad3d 08ad 4d3e ae73 18be 61c7 a6bd
00000340: 41f5 43be fe00 88be 55a0 eb3b ba4f 59bd
00000350: c48d 3fbe 2f02 9abd 3008 afbe 346b 453d
00000360: 60e8 033c e563 a8be 8a78 1abe 7242 0fbe
00000370: 03e3 d4bc 7762 11be 623d 2abf 0a8e ef3e
00000380: 0ff8 07bd 1726 0abe 7970 e0be bc99 e5bd
00000390: 0e8a b8bd 2007 843d 0af0 0dbd 52ac b7be
000003a0: 68dd 74be 403f 84bc ea83 53be c658 fdbe
000003b0: f2c3 713c e762 19be 6437 83be 3d40 033e
000003c0: 821b b1be f33d cabe 8612 48be a998 92be
000003d0: b9a5 febd e14f 7cbd 167d 68be bd7a 9cbd
000003e0: ea0e a33d 3610 5737 c11e 84be df14 03be
000003f0: 3e6f 293e cf64 96bc d2c8 93bd b580 4abe

network.1.running_mean f4 [256]
0.26568067 0.113076985 -0.042218924 0.08151549 -0.18743253 -0.13423435 -0.04493364 0.1169285
-0.20877391 -0.18808433 0.004218808 -0.09220496 -0.17643218 -0.23860003 0.17236088 -0.09915471
0.14021553 -0.11290517 -0.16728692 -0.25073794 -0.21291862 0.18326405 0.08444377 -0.20440064
-0.009395654 0.00071717973 0.20726073 0.11295194 0.14778925 -0.060371462 0.1570302 -0.30026466
0.2652033 0.3028851 -0.16707206 0.30793607 -0.05495297 -0.07515719 -0.23496118 0.28634354
-0.13980937 -0.19138338 0.2729023 -0.09925754 0.15276842 -0.07478231 0.020147407 -0.19419551
0.06121917 0.16577989 0.20548725 -0.37214077 -0.21701619 0.13854116 -0.30253008 -0.024267107
0.14631039 0.12459087 0.1627332 0.009236018 0.21285884 0.21881072 -0.16315265 0.099830344
-0.2005621 0.23100217 -0.10474561 0.11455029 -0.28227055 0.14188649 0.28354576 0.03725426
0.10818667 0.25727287 0.041614506 0.24359892 -0.11075897 -0.030253883 0.25986472 -0.229599
-0.061710447 0.25571883 -0.033070482 0.17091735 -0.3483011 0.15063415 -0.33521405 -0.23449194
0.13294119 -0.17809214 0.2733923 -0.17758027 0.027097832 0.39288065 -0.33144906 -0.28702658
-0.24034658 0.19914757 0.021088311 -0.20320576 -0.013417239 -0.24218777 -0.22452858 0.101900876
-0.2673459 -0.059886284 -0.25524345 0.03217737 0.063345335 0.23055768 -0.12436488 0.14308636
0.12749925 0.26734865 -0.03175323 -0.03879008 0.15162231 -0.22699636 -0.06257643 -0.19575265
0.33100936 -0.22877243 0.051163197 0.18535589 0.06234594 0.10954886 -0.17016214 -0.116493136
0.10983776 -0.07642392 0.2563474 0.0422305 0.23868918 -0.15635166 0.1533628 -0.3272839
0.075048134 0.2192269 0.28260064 0.035689447 -0.20594022 0.15204358 -0.12807849 -0.2525442
-0.11590128 0.08025101 -0.26436356 -0.24657838 -0.061834633 0.026465012 0.062415287 -0.18973245
0.12708814 0.3693343 0.07495509 -0.06346163 0.064093105 -0.07467836 0.28244492 0.24193683
0.10232355 -0.08617015 0.023763485 0.2797229 -0.26227093 0.1485731 0.25883904 -0.15360853
0.10535686 0.25529918 0.061285146 0.15982747 0.26782617 0.1400562 0.32655585 0.020118188
-0.14230378 0.076313354 0.21142806 -0.13545439 0.11440328 -0.27980587 -0.16006286 -0.19983429
-0.064805895 0.12098777 -0.1832787 -0.02678966 0.2699193 0.3122802 -0.17925926 0.01692645
-0.24211314 -0.14071338 0.07818661 0.26406935 -0.02337721 -0.15949854 -0.039760545 -0.15425594
0.2224253 -0.22952068 -0.043021083 -0.28244287 -0.20459603 -0.00045733742 0.17954035 -0.14707436
0.15292561 -0.13837172 -0.05129449 -0.24118775 0.1545516 -0.1295565 -0.11061011 -0.06499837
0.246191 0.15715837 0.11816746 -0.1325654 -0.35753644 0.14231586 -0.1465661 0.23843606
0.3577862 -0.07675338 -0.2362864 -0.08267979 -0.08627811 -0.19368653 0.17616251 0.15114035
0.08466166 -0.077156566 -0.10529463 0.08050953 -0.18064581 0.09007362 0.029905247 0.15737064
0.09407534 -0.30308044 -0.35491163 0.21435179 -0.05993723 0.116167374 -0.0006467608 -0.0029038507
0.04541168 0.006733409 0.02135865 -0.056577925 0.09373624 0.1589015 0.04556795 -0.06777578
00000000: 4c07 883e e894 e73d c0ed 2cbd 98f1 a63d
00000010: 50ee 3fbe bb74 09be 560c 38bd 3678 ef3d
00000020: d4c8 55be 2e99 40be ed3d 8a3b f4d5 bcbd
00000030: a3aa 34be 9153 74be 5f7f 303e a011 cbbd
00000040: a994 0f3e d33a e7bd 434d 2bbe b960 80be
00000050: 5707 5abe 92a9 3b3e dbf0 ac3d 674e 51be
00000060: 3bf0 19bc 1e01 3c3a 283c 543e 5953 e73d
00000070: 1156 173e 1148 77bd 86cc 203e 4abc 99be
00000080: bac8 873e c113 9b3e f014 2bbe cca9 9d3e
00000090: 5e16 61bd 03ec 99bd aa99 70be 9f9b 923e
000000a0: 302a 0fbe 01fa 43be dab9 8b3e 8a47 cbbd
000000b0: 536f 1c3e 7827 99bd 2d0c a53c 30db 46be
000000c0: f4c0 7a3d 34c2 293e 406b 523e 3c89 bebe
000000d0: 7e39 5ebe bcdd 0d3e 39e5 9abe d0cb c6bc
000000e0: 64d2 153e 8029 ff3d 88a3 263e ab52 173c
000000f0: abf7 593e eb0f 603e 7d11 27be da73 cc3d
00000100: 2760 4dbe d58b 6c3e de84 d6bd 5899 ea3d
00000110: c485 90be b14a 113e e92c 913e ec97 183d
00000120: f990 dd3d 45b9 833e f973 2a3d ff71 793e
00000130: 99d5 e2bd fed6 f7bc fd0c 853e 001c 6bbe
00000140: 18c4 7cbd 94ed 823e ea74 07bd f504 2f3e
00000150: 8654 b2be d73f 1a3e 2da1 abbe a81e 70be
00000160: bc21 083e c95d 36be 13fa 8b3e 9ad7 35be
00000170: 46fc dd3c a727 c93e b1b3 a9be 26f5 92be
00000180: 6a1d 76be 57ed 4b3e 65c1 ac3c 2c15 50be
00000190: fbd3 5bbc 1200 78be d2ea 65be 68b1 d03d
000001a0: 90e1 88be 524b 75bd 45af 82be 6bcc 033d
000001b0: 33bb 813d 5017 6c3e 04b3 febd 3b85 123e
000001c0: 2a8f 023e ece1 883e ad0f 02bd 59e2 1ebd
000001d0: e142 1b3e bc71 68be 1228 80bd 6273 48be
000001e0: 0f7a a93e 5243 6abe 8090 513d efcd 3d3e
000001f0: 755e 7f3d 275b e03d fc3e 2ebe f493 eebd
00000200: 9ff2 e03d 2584 9cbd f73f 833e e4f9 2c3d
00000210: f06a 743e a61a 20be 230b 1d3e c191 a7be
00000220: d6b2 993d 047d 603e 08b1 903e 192f 123d
00000230: fee1 52be 50b1 1b3e 0227 03be 794d 81be
00000240: a65d edbd a45a a43d a95a 87be 0b7f 7cbe
00000250: 5046 7dbd 27cd d83c 2ca7 7f3d 3949 42be
00000260: 6523 023e 6319 bd3e 0e82 993d 2cf8 81bd
00000270: 3f43 833d f8f0 98bd 9f9c 903e 4abe 773e
00000280: 028f d13d fa79 b0bd a4ab c23c d737 8f3e
00000290: 6048 86be 8c23 183e 8d86 843e 8e4b 1dbe
000002a0: 56c5 d73d 93b6 823e 2206 7b3d d0a9 233e
000002b0: 8320 893e e46a 0f3e 5432 a73e e6ce a43c
000002c0: 15b8 11be 2d4a 9c3d 9980 583e 8eb4 0abe
000002d0: 444c ea3d b742 8fbe 85e7 23be 5ca1 4cbe
000002e0: f4b8 84bd 70c8 f73d 69ad 3bbe fd75 dbbc
000002f0: dd32 8a3e 31e3 9f3e bd8f 37be 57a9 8a3c
00000300: 82ec 77be 2b17 10be 4d20 a03d 1934 873e
00000310: 9081 bfbc 9653 23be f4db 22bd 45f5 1dbe
00000320: 75c3 633e 7807 6bbe e036 30bd 5a9c 90be
00000330: 9f81 51be cac6 efb9 6dd9 373e a99a 16be
00000340: 8898 1c3e 51b1 0dbe 2c1a 52bd ecf9 76be
00000350: c642 1e3e 76aa 04be 8e87 e2bd de1d 85bd
00000360: 7e19 7c3e 20ee 203e c801 f23d 39bf 07be
00000370: 040f b7be 40bb 113e 6c15 16be 9528 743e
00000380: c12f b73e e030 9dbd 10f5 71be 0654 a9bd
00000390: 94b2 b0bd c355 46be f263 343e 89c4 1a3e
000003a0: 1863 ad3d 4304 9ebd b6a4 d7bd 2ee2 a43d
000003b0: 37fb 38be 8578 b83d d9fb f43c c525 213e
000003c0: 92aa c03d 5c2d 9bbe fab6 b5be 097f 5b3e
000003d0: be80 75bd 29e9 ed3d 628b 29ba 884e 3ebb
000003e0: 9901 3a3d eea3 dc3b 56f8 ae3c 41be 67bd
000003f0: c9f8 bf3d 13b7 223e 75a5 3a3d 07ce 8abd

network.1.running_var f4 [256]
0.60595185 0.7247179 0.5669475 0.6117465 0.4343637 0.91289616 0.8724276 0.9443718
0.92008185 1.0362042 0.9955817 0.8379061 1.2515827 0.61473185 0.88640517 0.7946673
1.2143822 1.218526 2.022563 0.89835906 0.6262913 1.0532523 1.2171587 1.3957531
0.89047563 1.0342613 0.61543953 0.70651406 0.85226256 0.9545967 1.1918563 0.73878413
0.6763961 0.9601048 0.7741255 0.5670678 1.046296 0.89892423 0.70936066 0.7649967
1.8296026 1.1442745 1.0151238 0.5884131 1.0760013 0.6798447 0.7923338 0.66328603
0.90605915 1.1064559 0.6455841 0.70876706 0.8610405 1.2547715 0.99351054 0.81268513
0.5911626 0.9489518 1.1679517 0.6060909 1.6988053 1.3455075 1.0737123 1.1264048
0.6164796 0.84468967 1.1000843 0.77819663 0.6623068 0.9318557 1.1939542 0.94855917
0.9122629 1.8094512 0.7436546 0.631386 0.8264801 0.718382 0.59803975 0.64338946
1.2807711 0.68044204 0.82380223 0.9194398 0.7381883 0.7353061 0.8268537 0.9360573
0.72442573 0.77301824 0.7622647 0.53229994 1.0730808 1.1126499 0.9642354 0.56071115
0.6510126 0.9854671 1.3190894 1.0696849 1.0387429 2.0975268 0.6827303 0.73593843
0.9177224 1.1361759 1.158967 0.8832624 0.87174946 0.5458856 0.7508156 0.5626484
0.8728865 0.96006054 0.8754518 0.5622064 1.0857044 0.9328855 0.62072635 0.8062699
1.6142868 0.89613307 1.0229329 0.81426245 0.5959619 0.7220335 0.46970052 0.901251
1.003449 1.2892419 0.7674801 1.0351369 0.7195997 0.69394803 0.5294193 1.2025372
0.96611863 0.61072963 1.0071541 0.5364119 0.6866133 0.750706 0.7628381 1.2857678
1.8851465 0.7645478 0.6490635 0.6227924 0.70918596 0.66755986 0.79229355 0.88392556
0.6800638 1.0987811 1.4453766 1.343433 1.2956305 1.4618777 0.67963594 1.1010314
0.76147705 0.8541695 0.9992941 1.3558794 1.515837 0.7156515 0.660197 0.7954487
1.940681 0.59765923 0.6049192 1.0292364 1.0735581 0.89193 1.0899448 1.5150735
0.44320688 1.2357168 0.72464585 0.8943939 0.7340538 1.2248528 1.1885004 0.76049036
0.80822736 1.0870124 0.5663322 1.1144859 0.57218623 1.1905558 0.7897702 0.87858117
1.072399 1.2253373 0.82944864 1.5202492 1.3616672 0.8656707 1.0835797 0.5755898
0.83251905 0.44709316 0.93699354 0.8139977 0.8435881 1.1413659 0.8549362 1.171732
0.9275663 0.7193411 0.66142404 1.5989158 0.76765984 0.5064753 0.49526775 1.3514578
0.66807264 1.138987 0.8454226 0.751248 0.68698955 1.4192607 0.82761014 0.80425084
1.2563915 0.7044278 0.6549021 1.4005312 1.1832736 0.82424295 1.3334687 1.3489449
0.8790469 1.0305593 1.1614224 0.53170305 0.6792203 0.78007877 1.1009691 0.86228836
0.7529898 0.67689604 0.7925604 0.55656505 0.79814845 0.69465464 0.6307361 1.042096
1.5805061 0.6700395 1.5657902 0.6031718 1.2129551 0.5770558 1.1411334 1.0646384
00000000: a91f 1b3f 1d87 393f 7923 113f 6b9b 1c3f
00000010: eb64 de3e 90b3 693f 6a57 5f3f 5ac2 713f
00000020: 7c8a 6b3f 57a2 843f 71de 7e3f 0481 563f
00000030: dd33 a03f 115f 1d3f 73eb 623f 516f 4b3f
00000040: e070 9b3f a9f8 9b3f ac71 0140 dcfa 653f
00000050: a054 203f f9d0 863f dbcb 9b3f 0aa8 b23f
00000060: 36f6 633f ad62 843f 728d 1d3f 1bde 343f
00000070: e12d 5a3f 7360 743f bf8e 983f f520 3d3f
00000080: 4b28 2d3f 6ec9 753f 172d 463f 5b2b 113f
00000090: 07ed 853f e61f 663f a998 353f d3d6 433f
000000a0: 6b30 ea3f 9677 923f 94ef 813f 3ea2 163f
000000b0: 69ba 893f 4d0a 2e3f 63d6 4a3f 1dcd 293f
000000c0: 7ef3 673f 59a0 8d3f 0045 253f c271 353f
000000d0: 266d 5c3f 5a9c a03f b556 7e3f 220c 503f
000000e0: 6f56 173f 81ee 723f 717f 953f c628 1b3f
000000f0: 7472 d93f 9739 ac3f 686f 893f 082e 903f
00000100: 9bd1 1d3f 953d 583f 90cf 8c3f e537 473f
00000110: f08c 293f 188e 6e3f 7ed3 983f c6d4 723f
00000120: 108a 693f 199c e73f 2660 3e3f 83a2 213f
00000130: 3394 533f e2e7 373f 2219 193f 2cb5 243f
00000140: 4ff0 a33f 7331 2e3f b4e4 523f 6860 6b3f
00000150: e9f9 3c3f 053d 3c3f afac 533f 74a1 6f3f
00000160: f773 393f 86e4 453f c823 433f cf44 083f
00000170: b65a 893f 506b 8e3f 22d8 763f c48a 0f3f
00000180: c3a8 263f 9247 7c3f ecd7 a83f 6feb 883f
00000190: 87f5 843f e13d 0640 6ac7 2e3f 7666 3c3f
000001a0: dbef 6a3f 366e 913f 0859 943f 7c1d 623f
000001b0: f92a 5f3f 29bf 0b3f 7335 403f ba09 103f
000001c0: 7d75 5f3f 87c6 753f 9c1d 603f c2ec 0f3f
000001d0: 5df8 8a3f 96d1 6e3f ece7 1e3f b467 4e3f
000001e0: f3a0 ce3f fa68 653f 77ef 823f 8173 503f
000001f0: f690 183f 30d7 383f 967c f03e 63b8 663f
00000200: 0471 803f e105 a53f 9379 443f 5e7f 843f
00000210: b037 383f 94a6 313f 0688 073f bdec 993f
00000220: 8d53 773f c758 1c3f 6dea 803f 4a52 093f
00000230: e4c5 2f3f 452e 403f 5c49 433f 0a94 a43f
00000240: 7b4c f13f 68b9 433f 0729 263f 536f 1f3f
00000250: 368d 353f 34e5 2a3f c0d3 4a3f f248 623f
00000260: a918 2e3f dca4 8c3f 1a02 b93f 9df5 ab3f
00000270: 38d7 a53f cf1e bb3f 9ffc 2d3f 99ee 8c3f
00000280: 29f0 423f daaa 5a3f bdd1 7f3f 758d ad3f
00000290: f206 c23f f034 373f ac02 293f 87a2 4b3f
000002a0: 3c68 f83f 3200 193f fcdb 1a3f 05be 833f
000002b0: 5a6a 893f 8655 643f 5083 8b3f eeed c13f
000002c0: 03ec e23e f82b 9e3f 6482 393f 00f7 643f
000002d0: f3ea 3b3f fac7 9c3f c820 983f 7faf 423f
000002e0: fde7 4e3f 3923 8b3f 26fb 103f 79a7 8e3f
000002f0: cc7a 123f 2264 983f 612e 4a3f b2ea 603f
00000300: 5f44 893f dad7 9c3f bf56 543f 8797 c23f
00000310: 1c4b ae3f 989c 5d3f bdb2 8a3f da59 133f
00000320: f81f 553f 65e9 e43e cfde 6f3f 2762 503f
00000330: 64f5 573f 4718 923f 19dd 5a3f 50fb 953f
00000340: fc74 6d3f bd26 383f 1653 293f 46a9 cc3f
00000350: 5b85 443f 5ea8 013f bc93 fd3e 92fc ac3f
00000360: cf06 2b3f 53ca 913f 9e6d 583f ca51 403f
00000370: 8cde 2f3f 56aa b53f 42de 533f 62e3 4d3f
00000380: 70d1 a03f 6155 343f aaa7 273f 9b44 b33f
00000390: 8275 973f 9601 533f 1aaf aa3f 3aaa ac3f
000003a0: 3809 613f 5ee9 833f 7da9 943f b11d 083f
000003b0: 62e1 2d3f 3eb3 473f 8eec 8c3f eebe 5c3f
000003c0: f1c3 403f 0f49 2d3f 3de5 4a3f 0c7b 0e3f
000003d0: 7553 4c3f e3d4 313f ec77 213f 6763 853f
000003e0: 064e ca3f b587 2b3f d06b c83f 7869 1a3f
000003f0: 1d42 9b3f eeb9 133f a910 923f 1246 883f

network.4.weight f4 [128, 256]
-0.21156348 -0.016972655 0.13537869 -0.00556822 -0.081370875 -0.022981478 -0.02830122 0.089707375
0.17256577 0.13520043 0.15674542 -0.42623955 0.15081692 0.13736509 0.02910235 0.1768382
0.097355254 0.10648686 0.042708777 0.1157518 -0.12330978 0.089512065 0.19657923 0.10450117
-0.060801525 -0.31778973 -0.13588263 -0.23114638 -0.08585112 0.06513653 0.13213338 -0.052671388
0.0673031 0.05857103 0.14812326 -0.14034969 0.034071516 0.18873738 0.29963002 0.030105738
0.09109291 -0.10822843 0.13533977 -0.290316 0.16035648 -0.05387779 -0.07249853 -0.13898264
0.25814706 0.25453544 -0.22832297 -0.22312471 0.20982043 -0.096744716 -0.085178494 -0.13029444
0.030882237 -0.023831274 -0.18294676 -0.03993845 0.14497252 0.06840729 -0.0886108 0.18923779
-0.2108425 0.34925228 -0.14240092 -0.04892041 -0.035232358 0.04651911 0.0064379033 0.030173996
0.115470566 0.027029093 0.0038117382 -0.14901842 -0.15628497 0.18782452 -0.052634433 -0.029159736
0.124652535 -0.06091716 -0.15128282 -0.23535812 0.18776567 -0.061784282 0.006787611 -0.4203242
-0.25365058 -0.036858983 -0.2728617 -0.1368989 0.23154779 -0.0065436917 0.13246338 -0.18890737
-0.21116953 -0.1882097 0.23293956 0.23128505 -0.07567377 -0.022336759 0.10332607 0.05422293
0.07890887 0.13821474 -0.27031916 -0.23558773 -0.088129796 0.042175718 -0.08427137 -0.09611044
0.008204301 0.24089324 -0.15131378 -0.0074737603 0.023715269 -0.13694377 0.1827352 0.08074868
0.28443176 -0.14978805 0.038400445 0.12403166 -0.08366091 -0.05360163 -0.23807162 0.070823036
-0.01771673 0.21201389 -0.16292712 0.06258283 -0.21923606 0.06358662 -0.33305568 0.102285095
0.17720227 -0.29044232 -0.0418151 -0.18768616 -0.049627583 -0.11031156 -0.27957854 -0.10128937
0.219938 -0.021623604 -0.008883411 -0.346198 -0.041289337 0.17630218 0.3452731 -0.015918693
-0.036939763 0.15543668 0.17964904 0.25233892 0.13377237 0.22661515 0.09426372 0.19778906
-0.34977153 0.062271226 0.076941475 0.14130947 0.07692769 -0.19200675 -0.22816832 0.0062191226
0.13032722 -0.04443102 -0.3061114 -0.11185234 -0.11823077 0.24755648 0.06116149 0.16449781
-0.011677146 -0.005195315 0.035476975 0.12120778 0.004791193 0.20744045 -0.108767815 0.06579494
0.020943224 0.18121184 -0.1632232 0.07544434 0.18664403 0.25430134 0.046344317 0.10834828
0.08737725 -0.1796044 0.06367375 0.19544718 0.18546222 0.14875719 0.104056105 0.16162522
0.059538543 -0.42074433 -0.0848366 0.023171946 0.08725995 -0.06967364 0.066836864 -0.13815638
0.11411648 0.04203218 -0.04579604 0.016217688 0.1914192 -0.25209856 -0.051904883 0.11369326
-0.22992517 0.3047216 0.08500879 0.08566868 -0.106341 -0.08284891 -0.04529378 0.12860899
0.21488702 0.062418062 -0.075837374 0.09186223 0.053753447 0.056591257 0.017393515 0.15386508
-0.031889044 -0.21794833 -0.043743573 0.21511292 0.00636466 -0.003311066 0.057232324 -0.24172428
0.11279497 -0.244627 -0.10429273 0.030965956 -0.041261807 0.059311617 0.24745157 0.1168082
0.26127812 -0.0060618063 0.20600602 -0.46140045 0.12265562 -0.13878626 0.1859883 -0.24857487
00000000: 19a4 58be 3d0a 8bbc b6a0 0a3e 9d75 b6bb
00000010: c6a5 a6bd a743 bcbc f6d7 e7bc 80b8 b73d
00000020: 15b5 303e fb71 0a3e df81 203e 123c dabe
00000030: c06f 1a3e 6fa9 0c3e 0d68 ee3c 1315 353e
00000040: 3162 c73d c815 da3d 66ef 2e3d 480f ed3d
00000050: d789 fcbd 1a52 b73d 114c 493e b604 d63d
00000060: 050b 79bd 56b5 a2be d124 0bbe a3b1 6cbe
00000070: b6d2 afbd 4d66 853d f94d 073e f4bd 57bd
00000080: 35d6 893d 2de8 6f3d a0ad 173e d4b7 0fbe
00000090: 938e 0b3d 5f44 413e 1b69 993e 4fa0 f63c
000000a0: eb8e ba3d dea6 ddbd 8296 0a3e 4ca4 94be
000000b0: 7d34 243e f5ae 5cbd 1c7a 94bd 7751 0ebe
000000c0: da2b 843e 7852 823e 7fcd 69be ce7a 64be
000000d0: 2bdb 563e 1822 c6bd 1072 aebd e86b 05be
000000e0: bffc fc3c ce39 c3bc 6556 3bbe 8096 23bd
000000f0: ad73 143e 1f19 8c3d 9479 b5bd 8dc7 413e
00000100: 19e7 57be 32d1 b23e 8cd1 11be c560 48bd
00000110: ce4f 10bd d38a 3e3d 0cf5 d23b 752f f73c
00000120: d57b ec3d 1e6c dd3c 5bce 793b 4998 18be
00000130: 2b09 20be 1255 403e 3497 57bd 66e0 eebc
00000140: d449 ff3d 4684 79bd e2e9 1abe b801 71be
00000150: a545 403e 8411 7dbd 9c6a de3b bc34 d7be
00000160: 7dde 81be 72f9 16bd 87b4 8bbe 3a2f 0cbe
00000170: dd1a 6d3e 776c d6bb 7ba4 073e ef70 41be
00000180: d33c 58be 0bba 40be b587 6e3e fdd5 6c3e
00000190: d9fa 9abd 94fb b6bc 9e9c d33d dd18 5e3d
000001a0: f99a a13d 2a88 0d3e 4667 8abe e93d 71be
000001b0: 657d b4bd 72c0 2c3d 7896 acbd 8dd5 c4bd
000001c0: 556b 063c b8ac 763e 00f2 1abe 72e6 f4bb
000001d0: 8646 c23c fd3a 0cbe f01e 3b3e 905f a53d
000001e0: 0aa1 913e 0a62 19be c949 1d3d 5004 fe3d
000001f0: 6956 abbd 628d 5bbd 0cc9 73be ab0b 913d
00000200: ad22 91bc 2b1a 593e 5ed6 26be 6d2b 803d
00000210: 6b7f 60be b439 823d 4686 aabe d97a d13d
00000220: 8374 353e dbb4 94be 4f46 2bbd cd30 40be
00000230: 4b46 4bbd 07eb e1bd eb24 8fbe cd70 cfbd
00000240: 6d37 613e fc23 b1bc ba8b 11bc dd40 b1be
00000250: 021f 29bd 8f88 343e a3c7 b03e eb67 82bc
00000260: 264e 17bd cb2a 1f3e ebf5 373e 9132 813e
00000270: a0fb 083e cd0d 683e 560d c13d 3789 4a3e
00000280: 4115 b3be 1d10 7f3d 7e93 9d3d 6eb3 103e
00000290: 448c 9d3d 6b9d 44be f5a4 69be c8c9 cb3b
000002a0: 8074 053e 4dfd 35bd a2ba 9cbe d712 e5bd
000002b0: f922 f2bd 727f 7d3e 7884 7a3d 1d72 283e
000002c0: 8051 3fbc 763d aabb 4e50 113d c93b f83d
000002d0: 71ff 9c3b 456b 543e a9c1 debd 7fbf 863d
000002e0: 2091 ab3c 998f 393e fc23 27be 9082 9a3d
000002f0: 9d1f 3f3e c933 823e 8ad3 3d3d b4e5 dd3d
00000300: d8f2 b23d 37ea 37be 6267 823d 4e23 483e
00000310: cfe9 3d3e ce53 183e 5e1b d53d 1581 253e
00000320: b0de 733d cd6b d7be d0be adbd 18d3 bd3c
00000330: 58b5 b23d 0eb1 8ebd c4e1 883d de78 0dbe
00000340: e7b5 e93d ef29 2c3d a194 3bbd f5da 843c
00000350: 6503 443e 1013 81be 379a 54bd 03d8 e83d
00000360: 8171 6bbe 7804 9c3e 1719 ae3d 1073 af3d
00000370: 4fc9 d9bd b0ac a9bd f885 39bd 13b2 033e
00000380: 580b 5c3e 15aa 7f3d a050 9bbd 4422 bc3d
00000390: 932c 5c3d 3ccc 673d d87c 8e3c cf8e 1d3e
000003a0: 169e 02bd d92d 5fbe 762c 33bd 9046 5c3e
000003b0: a38e d03b 78fe 58bb 716c 6a3d 9286 77be
000003c0: 0d01 e73d 807f 7abe 6d97 d5bd 51ac fd3c
000003d0: 2402 29bd bdf0 723d f263 7d3e 2339 ef3d
000003e0: 3fc6 853e 1ea2 c6bb 3ef3 523e ae3c ecbe
000003f0: df32 fb3d fc1d 0ebe b873 3e3e 698a 7ebe

network.4.bias f4 [128]
-0.051483233 -0.058515195 -0.039625615 -0.048906654 -0.041832834 0.020401731 -0.040957153 0.050243787
-0.033313196 -0.012490121 -0.059016507 0.0020859318 -0.009019155 -0.031453773 -0.03028819 -0.012180057
0.010353145 -0.028644783 -0.06047088 0.028577773 -0.05438143 -0.0060298974 -0.028884094 -0.050612397
-0.037449844 -0.036605027 0.04513936 -0.05432608 -0.054969475 0.04234614 -0.012901786 0.014432346
-0.032331407 -0.024254784 0.015411377 0.049716882 0.029767398 -0.042652924 0.06481331 0.03407813
-0.026011348 0.016042493 0.020004176 -0.042979673 0.028865306 -0.05211626 0.019450825 0.013567504
-0.046915367 0.060542103 -0.062775515 -0.0476986 0.0021380866 0.031207284 -0.051558614 -0.03213583
-0.019411596 0.01716349 0.02189315 -0.01015915 -0.022907093 -0.06322203 0.053051706 -0.03814897
0.024568003 -0.012143796 0.016382867 0.020626163 -0.041238263 -0.044340566 0.043973077 -0.038206205
-0.023757705 -0.021095963 0.03256853 0.03609345 -0.061436825 0.04503896 0.0090790745 -0.014731865
-0.051156927 -0.048926115 0.019310623 -0.019492056 -0.015081833 0.031877004 -0.06164231 0.0018996481
-0.05851421 -0.004667072 0.027785119 -0.061693307 0.036815442 0.006736357 0.022373943 -0.05490438
-0.017214168 0.0072078276 0.055452313 0.020623371 -0.049554504 0.020316573 0.038893808 -0.025409278
0.011952473 -0.056830477 0.05405342 0.008387256 -0.040319208 0.042605113 -0.024442524 0.05640926
0.034330316 0.058427896 0.03493627 0.05025332 0.026845846 -0.011471806 0.03740737 -0.0075155706
0.0026959002 0.030565852 -0.061001323 0.031231634 0.036917534 0.019534336 -0.0035330798 -0.03679495
00000000: 15e0 52bd a1ad 6fbd 784e 22bd 5852 48bd
00000010: e858 2bbd 8821 a73c b0c2 27bd 6ecc 4d3d
00000020: 6b73 08bd 5da3 4cbc 4bbb 71bd 21b4 083b
00000030: 14c5 13bc acd5 00bd f01e f8bc dd8e 47bc
00000040: 3da0 293c 77a8 eabc 50b0 77bd ef1b ea3c
00000050: 10bf 5ebd 7296 c5bb 569e ecbc f24e 4fbd
00000060: 0265 19bd 27ef 15bd 0de4 383d 0685 5ebd
00000070: ac27 61bd 2573 2d3d 0362 53bc a675 6c3c
00000080: f06d 04bd f8b1 c6bc 0080 7c3c eea3 4b3d
00000090: c2da f33c d5b4 2ebd d7bc 843d 8295 0b3d
000000a0: c015 d5bc 8c6b 833c ccdf a33c 740b 30bd
000000b0: ef76 ec3c dc77 55bd 5657 9f3c 3c4a 5e3c
000000c0: 542a 40bd fffa 773d 7390 80bd 9b5f 43bd
000000d0: 241f 0c3b 6ba6 ff3c 202f 53bd dca0 03bd
000000e0: 1105 9fbc 739a 8c3c 4359 b33c 9072 26bc
000000f0: a8a7 bbbc 8d7a 81bd bf4c 593d 1842 1cbd
00000100: d642 c93c c6f6 46bc 5d35 863c 33f8 a83c
00000110: 74e9 28bd 749e 35bd 1d1d 343d 1c7e 1cbd
00000120: 859f c2bc 71d1 acbc 9466 053d bad6 133d
00000130: 2ea5 7bbd c67a 383d 66c0 143c ec5d 71bc
00000140: ed89 51bd c066 48bd 5031 9e3c cead 9fbc
00000150: cb19 77bc 7691 023d a67c 7cbd 9dfd f83a
00000160: 99ac 6fbd 3dee 98bb 9e9d e33c 1fb2 7cbd
00000170: cacb 163d a9bc dc3b 8f49 b73c 6ae3 60bd
00000180: ba04 8dbc a42f ec3b f721 633d 58f2 a83c
00000190: aaf9 4abd f16e a63c 1d4f 1f3d 1e27 d0bc
000001a0: 4ed4 433c 13c7 68bd 1e67 5d3d b46a 093c
000001b0: c125 25bd b382 2e3d b03b c8bc 650d 673d
000001c0: f29d 0c3d 1752 6f3d 5619 0f3d 6dd6 4d3d
000001d0: d2eb db3c 3ef4 3bbc 7838 193d 2d45 f6bb
000001e0: b3ad 303b 3d65 fa3c 86dc 79bd 7cd9 ff3c
000001f0: d736 173d 7906 a03c 3e8b 67bb 4db6 16bd

network.5.weight f4 [128]
1.0829766 1.1317691 1.0851505 1.3355482 0.8253104 0.8472377 0.9843605 0.880046
0.7329478 1.1365024 1.0586156 0.79681146 1.2016661 1.0923307 1.216049 0.82374907
0.9666581 0.829832 1.0835971 1.1315192 0.9231552 0.8241416 1.1174338 1.0362605
0.5791908 0.7152383 1.0635026 1.0929258 0.99830085 1.20919 1.1620083 0.9182229
0.8860895 0.8712164 1.1329937 1.2035179 1.049457 0.92574525 1.0672226 0.97091883
0.7736428 0.7981114 0.89592767 0.8528035 0.9991949 0.9523805 0.7922851 0.6204901
0.9901114 0.61590487 1.0225047 1.1725123 1.0083274 0.9002629 1.3085724 1.2175
1.1668687 1.2756361 0.6277235 0.9531957 1.1088039 1.0338142 0.9422595 1.2703456
1.0790204 0.9083586 1.191171 1.2258921 0.79850066 0.966138 1.1213062 1.1850331
1.0311278 1.1133012 0.96719235 1.1241097 0.92855704 0.59700745 1.0770822 1.1379589
0.75479066 1.287506 0.9390392 1.0574696 1.0022955 1.1593919 0.804338 0.89092207
1.1575933 0.89996475 1.1819271 1.056986 0.93493056 0.7502291 0.98054504 0.84229493
0.79251844 0.8184624 0.94749165 1.0654172 0.9154932 1.0693301 1.1301985 1.3373423
0.9672698 1.0937445 1.2065185 0.9487958 1.0607084 0.8312696 0.7574229 1.200184
1.0841041 1.1931765 0.9128103 1.0713786 1.1975571 0.9353021 1.0289172 0.97908086
1.0433879 1.0806141 1.0967113 1.0793275 1.1260507 0.82367367 1.1901218 0.9013293
00000000: fa9e 8a3f cfdd 903f 36e6 8a3f 3ef3 aa3f
00000010: 8b47 533f 92e4 583f 0dff 7b3f b24a 613f
00000020: 78a2 3b3f e978 913f b780 873f d6fb 4b3f
00000030: 32d0 993f 7ed1 8b3f 7ea7 9b3f 38e1 523f
00000040: e876 773f df6f 543f 4fb3 8a3f 9fd5 903f
00000050: e653 6c3f f2fa 523f 1208 8f3f 2fa4 843f
00000060: d945 143f db19 373f da20 883f fee4 8b3f
00000070: a590 7f3f bdc6 9a3f b0bc 943f a810 6b3f
00000080: c3d6 623f 0a08 5f3f f005 913f e00c 9a3f
00000090: 9b54 863f a4fd 6c3f c09a 883f 238e 783f
000000a0: 740d 463f 0751 4c3f 845b 653f 5551 5a3f
000000b0: 3dcb 7f3f 35cf 733f 32d3 4a3f 70d8 1e3f
000000c0: f177 7d3f f1ab 1d3f 6fe1 823f e214 963f
000000d0: df10 813f a177 663f 4d7f a73f 0ad7 9b3f
000000e0: f45b 953f 0b48 a33f 7db2 203f a204 743f
000000f0: 49ed 8d3f 0654 843f eb37 713f af9a a23f
00000100: 571d 8a3f 308a 683f 4b78 983f 08ea 9c3f
00000110: 8a6a 4c3f d254 773f f686 8f3f 2aaf 973f
00000120: fffb 833f a780 8e3f eb99 773f d4e2 8f3f
00000130: eab5 6d3f 7bd5 183f d4dd 893f a3a8 913f
00000140: f639 413f ffcc a43f df64 703f 2a5b 873f
00000150: 384b 803f f466 943f 18e9 4d3f 7813 643f
00000160: 042c 943f 1764 663f 6349 973f 514b 873f
00000170: 9c57 6f3f 040f 403f 0005 7b3f a4a0 573f
00000180: 7de2 4a3f c086 513f d08e 723f 975f 883f
00000190: c35d 6a3f cfdf 883f 58aa 903f 082e ab3f
000001a0: fe9e 773f d2ff 8b3f 336f 9a3f 48e4 723f
000001b0: 4bc5 873f 16ce 543f 78e6 413f a19f 993f
000001c0: ecc3 8a3f 02ba 983f f0ad 693f ef22 893f
000001d0: 8d49 993f f56f 6f3f 8fb3 833f 0ba5 7a3f
000001e0: bc8d 853f 9051 8a3f 0961 8c3f 6727 8a3f
000001f0: 6e22 903f 47dc 523f e955 983f 84bd 663f
